…
__________________________________________________________________________________________________
conv3d_2 (Conv3D)               (None, 12, 14, 12, 3 11059584    dropout_1[0][0]
__________________________________________________________________________________________________
batch_normalization_2 (BatchNor (None, 12, 14, 12, 3 1536        conv3d_2[0][0]
__________________________________________________________________________________________________
elu_2 (ELU)                     (None, 12, 14, 12, 3 0           batch_normalization_2[0][0]
__________________________________________________________________________________________________
max_pooling3d_2 (MaxPooling3D)  (None, 6, 7, 6, 384) 0           elu_2[0][0]
__________________________________________________________________________________________________
dropout_2 (Dropout)             (None, 6, 7, 6, 384) 0           max_pooling3d_2[0][0]
__________________________________________________________________________________________________
separable_conv3d_1 (SeparableCo (None, 6, 7, 6, 384) 158208      dropout_2[0][0]
__________________________________________________________________________________________________
batch_normalization_3 (BatchNor (None, 6, 7, 6, 384) 1536        separable_conv3d_1[0][0]
__________________________________________________________________________________________________
elu_3 (ELU)                     (None, 6, 7, 6, 384) 0           batch_normalization_3[0][0]
__________________________________________________________________________________________________
dropout_3 (Dropout)             (None, 6, 7, 6, 384) 0           elu_3[0][0]
__________________________________________________________________________________________________
separable_conv3d_2 (SeparableCo (None, 6, 7, 6, 384) 158208      dropout_3[0][0]
__________________________________________________________________________________________________
batch_normalization_4 (BatchNor (None, 6, 7, 6, 384) 1536        separable_conv3d_2[0][0]
__________________________________________________________________________________________________
elu_4 (ELU)                     (None, 6, 7, 6, 384) 0           batch_normalization_4[0][0]
__________________________________________________________________________________________________
dropout_4 (Dropout)             (None, 6, 7, 6, 384) 0           elu_4[0][0]
__________________________________________________________________________________________________
separable_conv3d_3 (SeparableCo (None, 6, 7, 6, 384) 158208      dropout_4[0][0]
__________________________________________________________________________________________________
batch_normalization_5 (BatchNor (None, 6, 7, 6, 384) 1536        separable_conv3d_3[0][0]
__________________________________________________________________________________________________
elu_5 (ELU)                     (None, 6, 7, 6, 384) 0           batch_normalization_5[0][0]
__________________________________________________________________________________________________
dropout_5 (Dropout)             (None, 6, 7, 6, 384) 0           elu_5[0][0]
__________________________________________________________________________________________________
add_1 (Add)                     (None, 6, 7, 6, 384) 0           dropout_5[0][0]
                                                                 dropout_2[0][0]
__________________________________________________________________________________________________
elu_6 (ELU)                     (None, 6, 7, 6, 384) 0           add_1[0][0]
__________________________________________________________________________________________________
lambda_1 (Lambda)               (None, 6, 7, 6, 192) 0           elu_6[0][0]
__________________________________________________________________________________________________
lambda_2 (Lambda)               (None, 6, 7, 6, 192) 0           elu_6[0][0]
__________________________________________________________________________________________________
conv3d_3 (Conv3D)               (None, 6, 7, 6, 96)  663648      lambda_1[0][0]
__________________________________________________________________________________________________
conv3d_4 (Conv3D)               (None, 6, 7, 6, 96)  663648      lambda_2[0][0]
__________________________________________________________________________________________________
batch_normalization_6 (BatchNor (None, 6, 7, 6, 96)  384         conv3d_3[0][0]
__________________________________________________________________________________________________
batch_normalization_7 (BatchNor (None, 6, 7, 6, 96)  384         conv3d_4[0][0]
__________________________________________________________________________________________________
elu_7 (ELU)                     (None, 6, 7, 6, 96)  0           batch_normalization_6[0][0]
__________________________________________________________________________________________________
elu_8 (ELU)                     (None, 6, 7, 6, 96)  0           batch_normalization_7[0][0]
__________________________________________________________________________________________________
max_pooling3d_3 (MaxPooling3D)  (None, 3, 4, 3, 96)  0           elu_7[0][0]
__________________________________________________________________________________________________
max_pooling3d_4 (MaxPooling3D)  (None, 3, 4, 3, 96)  0           elu_8[0][0]
__________________________________________________________________________________________________
dropout_6 (Dropout)             (None, 3, 4, 3, 96)  0           max_pooling3d_3[0][0]
__________________________________________________________________________________________________
dropout_7 (Dropout)             (None, 3, 4, 3, 96)  0           max_pooling3d_4[0][0]
__________________________________________________________________________________________________
conv3d_5 (Conv3D)               (None, 3, 4, 3, 48)  165936      dropout_6[0][0]
__________________________________________________________________________________________________
conv3d_6 (Conv3D)               (None, 3, 4, 3, 48)  165936      dropout_7[0][0]
__________________________________________________________________________________________________
batch_normalization_8 (BatchNor (None, 3, 4, 3, 48)  192         conv3d_5[0][0]
__________________________________________________________________________________________________
batch_normalization_9 (BatchNor (None, 3, 4, 3, 48)  192         conv3d_6[0][0]
__________________________________________________________________________________________________
elu_9 (ELU)                     (None, 3, 4, 3, 48)  0           batch_normalization_8[0][0]
__________________________________________________________________________________________________
elu_10 (ELU)                    (None, 3, 4, 3, 48)  0           batch_normalization_9[0][0]
__________________________________________________________________________________________________
input_xls (InputLayer)          (None, 2)            0
__________________________________________________________________________________________________
max_pooling3d_5 (MaxPooling3D)  (None, 2, 2, 2, 48)  0           elu_9[0][0]
__________________________________________________________________________________________________
max_pooling3d_6 (MaxPooling3D)  (None, 2, 2, 2, 48)  0           elu_10[0][0]
__________________________________________________________________________________________________
dense_1 (Dense)                 (None, 64)           192         input_xls[0][0]
__________________________________________________________________________________________________
dropout_8 (Dropout)             (None, 2, 2, 2, 48)  0           max_pooling3d_5[0][0]
__________________________________________________________________________________________________
dropout_9 (Dropout)             (None, 2, 2, 2, 48)  0           max_pooling3d_6[0][0]
__________________________________________________________________________________________________
batch_normalization_10 (BatchNo (None, 64)           256         dense_1[0][0]
__________________________________________________________________________________________________
concatenate_1 (Concatenate)     (None, 2, 2, 2, 96)  0           dropout_8[0][0]
                                                                 dropout_9[0][0]
__________________________________________________________________________________________________
elu_11 (ELU)                    (None, 64)           0           batch_normalization_10[0][0]
__________________________________________________________________________________________________
reshape_1 (Reshape)             (None, 768)          0           concatenate_1[0][0]
__________________________________________________________________________________________________
dropout_10 (Dropout)            (None, 64)           0           elu_11[0][0]
__________________________________________________________________________________________________
final_conv (Dense)              (None, 20)           15380       reshape_1[0][0]
__________________________________________________________________________________________________
dense_2 (Dense)                 (None, 20)           1300        dropout_10[0][0]
__________________________________________________________________________________________________
batch_normalization_12 (BatchNo (None, 20)           80          final_conv[0][0]
__________________________________________________________________________________________________
batch_normalization_11 (BatchNo (None, 20)           80          dense_2[0][0]
__________________________________________________________________________________________________
elu_13 (ELU)                    (None, 20)           0           batch_normalization_12[0][0]
__________________________________________________________________________________________________
elu_12 (ELU)                    (None, 20)           0           batch_normalization_11[0][0]
__________________________________________________________________________________________________
dropout_12 (Dropout)            (None, 20)           0           elu_13[0][0]
__________________________________________________________________________________________________
dropout_11 (Dropout)            (None, 20)           0           elu_12[0][0]
__________________________________________________________________________________________________
concatenate_2 (Concatenate)     (None, 40)           0           dropout_12[0][0]
                                                                 dropout_11[0][0]
__________________________________________________________________________________________________
features (Dense)                (None, 40)           1640        concatenate_2[0][0]
__________________________________________________________________________________________________
CNNclass_output (Dense)         (None, 2)            82          features[0][0]
==================================================================================================
Total params: 13,522,658
Trainable params: 13,518,418
Non-trainable params: 4,240
__________________________________________________________________________________________________
WARNING:tensorflow:From /data/users/anaconda3/envs/tf-gpu-cuda10/lib/python3.6/site-packages/tensorflow_core/python/ops/math_grad.py:1424: where (from tensorflow.python.ops.array_ops) is deprecated and will be removed in a future version.
…
